checkpoint.pth (torch_old, 54575 bytes, 6 tensors)

fc1.weight f4 [128, 37]
0	0x3df15615	0.11783997
1	0x3df05016	0.11734025
2	0x3df01995	0.117236294
3	0x3dafe2ac	0.08588156
4	0x3d5c6ae8	0.05381289
5	0x3c4bfbcf	0.012450173
6	0xbd7d3678	-0.061819524
7	0x3dc52ab4	0.096272856
8	0x3dfb1a9c	0.12260935
9	0x3db779e9	0.089587994
10	0x3d611448	0.054950982
11	0x3dec1851	0.115280755
12	0x3daff2a1	0.085912
13	0x3d14f846	0.036369585
14	0xbd0ff5ee	-0.035146646
15	0xbafd74f6	-0.0019337225
16	0x3dccf3ae	0.10007416
17	0x3d5e0b08	0.05420974
18	0x3d39fd4c	0.04540758
19	0xbc699cdf	-0.014258592
20	0xbdd611de	-0.10452627
21	0x3d5ac12d	0.053406883
22	0x3d625eb7	0.05526611
23	0xbdc937e4	-0.098251134
24	0xbd92f7ba	-0.07176156
25	0x3e95fe33	0.292955
26	0xbf33557c	-0.70052314
27	0xbf070bb0	-0.5275221
28	0xbf1bc91c	-0.60853744
29	0xc0206834	-2.50636
30	0x3dbac472	0.091195
31	0x3df3a32d	0.11896358
32	0x3db265c0	0.087108135
33	0x3de373c0	0.11106062
34	0x3ce25081	0.027626278
35	0xbc15082f	-0.009096189
36	0x3b20a4b8	0.0024512243
37	0x3e641028	0.22271788
38	0xbe72f686	-0.23726854
39	0xbde21305	-0.11038784
40	0xbd09d593	-0.033650946
41	0xbf27c89a	-0.6554047
42	0x3d6316d3	0.05544169
43	0x3e5342f0	0.20631003
44	0xbe0e1029	-0.13873352
45	0xbd90c6fb	-0.070692025
46	0x3c47069f	0.012147575
47	0xbe75a0a0	-0.23987055
48	0x3da4e79d	0.08051989
49	0x3ca06c9c	0.019583039
50	0xbe43fa1b	-0.19138376
51	0x3ee359ac	0.44404352
52	0xbe1a778f	-0.1508467
53	0x3dd51a9e	0.104054675
54	0xbc9d6b6b	-0.01921626
55	0x3da98625	0.08277539
56	0xbeeba706	-0.46025866
57	0xbc099595	-0.00839748
58	0xbc0c1d83	-0.008551958
59	0xbe3702d4	-0.17872173
60	0x3e319ab3	0.1734417
61	0x3ebaf7b6	0.36517113
62	0x3d30815b	0.043092113
63	0xbcb513f3	-0.02210424
64	0xbd4a7586	-0.049428485
65	0xbe8acf97	-0.27111503
66	0x3ea95919	0.3307579
67	0x3c078b0c	0.008272897
68	0xbf19c162	-0.60060704
69	0xbc90b2da	-0.017663408
70	0x3d6e66df	0.058203574
71	0xbe770afd	-0.24125285
72	0xbc346e08	-0.011012562
73	0xbd250d2d	-0.04029577
74	0xbe2d7968	-0.16940844
75	0xbe094bf0	-0.13407874
76	0xbeb44fc2	-0.352171
77	0x3e310089	0.1728536
78	0x3e2039b5	0.15647013
79	0xbd507bf8	-0.050899476
80	0xbd1bc31a	-0.03802786
81	0xbd6680dc	-0.056275234
82	0x3d9461a5	0.07245187
83	0xbd73f827	-0.05956283
84	0xbe1f3c8d	-0.15550442
85	0xbc86807f	-0.016418694
86	0x3d9ca5d8	0.0764882
87	0xbd92e919	-0.07173366
88	0xbecf5bc0	-0.40499687
89	0x3e5c7435	0.21528704
90	0xbe8814a7	-0.26578256
91	0xbe853637	-0.26017925
92	0x3e1599a3	0.14609389
93	0xbe4ac902	-0.19803241
94	0xbe93c37c	-0.2886008
95	0x3d998a2a	0.07497056
96	0x3e2e968a	0.17049614
97	0xbe93b825	-0.2885143
98	0x3d952fcb	0.072845064
99	0xbe63a010	-0.22229028
100	0xbbe84cb0	-0.00708922
101	0xbe3761dc	-0.17908424
102	0x3e0c8ed9	0.13726367
103	0x3ecec9fc	0.40388477
104	0xbddccfb0	-0.10781801
105	0xbda3c7f6	-0.07997124
106	0xbd66aa8f	-0.056315
107	0xbeaf4c69	-0.34237984
108	0xbe838923	-0.25690565
109	0xbd7c8a11	-0.061655108
110	0x3dad6282	0.084660545
111	0x3dff2878	0.12458891
112	0xbe4bf267	-0.19916688
113	0x3ca00cac	0.019537292
114	0xbeba0111	-0.3632894
115	0xbec5fbd3	-0.3866869
116	0x3d7bb1ea	0.06144897
117	0xbc118f64	-0.008884285
118	0xbdf7ec38	-0.12105602
119	0xbf313f34	-0.69237065
120	0x3e038968	0.12845385
121	0xbcc0ea36	-0.02354918
122	0xbe0448f8	-0.1291846
123	0xbe08eb48	-0.13371003
124	0xbd001935	-0.03127404
125	0x3e2850b4	0.16437036
126	0xbd97ff93	-0.07421794
127	0xbecf9390	-0.4054227
128	0x3e77d2f0	0.2420156
129	0x3bca3bac	0.006171664
130	0xbeb991fe	-0.36244196
131	0x3e0005f6	0.12502274
132	0xbe8603bf	-0.26174733
133	0xbc3f5d07	-0.011679894
134	0x3ce27b84	0.027646787
135	0xbeb573e7	-0.3543999
136	0xbdcd4615	-0.10023133
137	0xbdeb913c	-0.11502311
138	0x3df186d3	0.11793294
139	0xbebeb73f	-0.3724918
140	0x3c22ea4a	0.009943554
141	0xbe415a17	-0.18882023
142	0x3e61acf3	0.22038631
143	0xbd637e53	-0.055540394
144	0xbf2b1487	-0.668282
145	0x3e312ef7	0.17303072
146	0x3b147f35	0.002265883
147	0x3d8ad59c	0.06779024
148	0x3ea9921f	0.33119294
149	0x3d4da6a7	0.05020776
150	0xbd5dbf0c	-0.054137275
151	0xbe9de451	-0.30838254
152	0xbec41732	-0.38298947
153	0xbd347d28	-0.04406467
154	0x3e148083	0.14502148
155	0xbc11da44	-0.008902136
156	0x3e04d33c	0.12971205
157	0x3e6fdc1a	0.23423806
158	0x3e83fba1	0.25777915
159	0xbd872dd7	-0.0660054
160	0x3daea43d	0.0852742
161	0xbc22a1b1	-0.009926246
162	0xbd1d19b7	-0.0383546
163	0xbd85f19c	-0.06540224
164	0x3cef40b5	0.02920566
165	0x3dd092ce	0.10184251
166	0x3cf61190	0.030037671
167	0x3e2fba01	0.17160799
168	0x3e45a58a	0.1930143
169	0xbd32f6dc	-0.043692455
170	0xbdc6b2a4	-0.09702042
171	0x3cf74743	0.030185347
172	0xbe0870e6	-0.13324317
173	0x3c0f292a	0.008737842
174	0x3d164ed7	0.03669628
175	0xbd6600ea	-0.056153215
176	0xbc5e1d2b	-0.013556759
177	0xbe0e1a38	-0.13877189
178	0x3ea7a636	0.32743996
179	0xbe2e9009	-0.17047133
180	0xbd9c7e6c	-0.076413006
181	0x3e1f2985	0.15543182
182	0xbd9a2454	-0.0752646
183	0x3b82943c	0.003984956
184	0x3cd97798	0.026546285
185	0x3e1f9d7e	0.15587422
186	0xbe8fcdfa	-0.28086835
187	0x3ce469c5	0.027882466
188	0xbdcb2df2	-0.09920873
189	0xbe6e4e8a	-0.23272148
190	0x3c8ef76a	0.01745196
191	0xbe074b2a	-0.13212267
192	0x3e51ea02	0.20499423
193	0xbe06b1b1	-0.13153721
194	0xbf295f69	-0.6616121
195	0x3d578611	0.05261809
196	0x3b864830	0.004097961
197	0xbb485038	-0.0030565392
198	0xbe44078f	-0.19143508
199	0xbe4fb212	-0.20282772
200	0xbdf80c40	-0.121117115
201	0xbf1c76e8	-0.61118937
202	0x3e6761c3	0.22595887
203	0x3d404817	0.04694375
204	0xbe31c8cc	-0.17361754
205	0x3d1a6438	0.037693232
206	0xbe891af4	-0.26778376
207	0xbebacea6	-0.36485785
208	0xbcdc83e0	-0.026918352
209	0xbd994bef	-0.07485186
210	0x3dbc72a4	0.092015535
211	0xbe8125e7	-0.2522423
212	0x3decd6db	0.11564418
213	0xbf0f009d	-0.5586031
214	0xbe6aef93	-0.22942953
215	0x3e4ecf54	0.20196277
216	0x3dcb8c37	0.09938853
217	0xbe522dd5	-0.20525296
218	0xbc82a7e2	-0.015949193
219	0xbda0d235	-0.07852594
220	0xbd93521e	-0.07193397
221	0x3d8674e9	0.065652676
222	0x3d01de85	0.03170635
223	0xbe58b281	-0.21161844
224	0xbe0cf960	-0.13767004
225	0x3e08bc20	0.13353014
226	0x3cdd01a1	0.026978316
227	0x3e10427a	0.14087859
228	0xbdb03ce9	-0.08605368
229	0xbe567352	-0.20942429
230	0xbebd8cae	-0.37021393
231	0x3f03bb0f	0.51457304
232	0x3e4655e7	0.19368707
233	0x3de31576	0.11088078
234	0x3d855ff2	0.06512441
235	0x3d8b673e	0.06806801
236	0x3d97381e	0.073837504
237	0xbe5c83b2	-0.21534613
238	0x3dec38c4	0.11534265
239	0xbe8313a6	-0.25600928
240	0x3e37a92d	0.17935629
241	0xbe5d0684	-0.21584517
242	0x3db4f2d3	0.088353775
243	0xbe840fc1	-0.2579327
244	0x3d96dc1f	0.073662035
245	0xbeeadeec	-0.458732
246	0xbee0b05f	-0.4388456
247	0x3dab7e4f	0.08373701
248	0xbcfe42f7	-0.03103779
249	0x3e439bec	0.19102448
250	0xbeb61a34	-0.35566866
251	0xbe61181c	-0.21981853
252	0xbcdfc974	-0.02731774
253	0xbd3cf53f	-0.046132322
254	0xbdf94fb5	-0.12173406
255	0xbdab6981	-0.08369733

fc1.bias f4 [128]
0	0x3e0ed4da	0.13948384
1	0xbd80d2f9	-0.0629024
2	0xbc54b2e1	-0.012982101
3	0xbdf8190c	-0.12114152
4	0x3e752a8b	0.2394201
5	0xbdd8dc69	-0.10588915
6	0xb9a57461	-0.00031557961
7	0xbdf6007b	-0.120118104
8	0xbd0e7e65	-0.034788508
9	0xbe115ca6	-0.14195499
10	0xbe012d02	-0.12614825
11	0xbd61c6de	-0.055121295
12	0xbde8a818	-0.11360186
13	0x3e01cb39	0.1267518
14	0x3d44a4a9	0.048008595
15	0x3dda92a5	0.106725015
16	0xbd37e715	-0.04489811
17	0x3e204af7	0.15653597
18	0x3df546f9	0.119764276
19	0xbd5412ec	-0.051775858
20	0xbdf36fa0	-0.11886525
21	0x3e269f1f	0.16271637
22	0x3b61f0ff	0.003447592
23	0xbd32c7d8	-0.043647617
24	0xbcbfaf29	-0.023398953
25	0xbd82b7ba	-0.06382699
26	0x3d0f5a70	0.034998357
27	0x3ca015e9	0.019541698
28	0x3d72ef4d	0.059310246
29	0xbd8b72db	-0.06809016
30	0xbd6c6430	-0.057712734
31	0xbe0b3c06	-0.13597116
32	0xbcfbdc71	-0.030744763
33	0x3dae8b6f	0.085226886
34	0xbe27dc44	-0.16392618
35	0xbd8457aa	-0.06462033
36	0xbe1434f6	-0.14473328
37	0x3d85eaae	0.06538902
38	0x3dcd3a73	0.10020914
39	0xbe232759	-0.15932979
40	0xbcfcccfc	-0.030859463
41	0x3c5a34d8	0.013318263
42	0xbde82027	-0.113342576
43	0x3d5c942d	0.05385225
44	0x3d8b9b2e	0.068167076
45	0x3deec5a6	0.11658792
46	0x3bf5d88d	0.0075026215
47	0x3d17d6d6	0.037070118
48	0xbdae0767	-0.08497506
49	0xbd926b94	-0.07149425
50	0xbc3278a5	-0.010893022
51	0x3bf3dfd5	0.0074424543
52	0x3dfd11bd	0.12356899
53	0xbe039650	-0.12850308
54	0xbb3f6ee5	-0.0029210385
55	0x3d5c4fa4	0.05378689
56	0xbbeab11f	-0.0071622278
57	0x3db09afb	0.0862331
58	0x3d35d967	0.044396784
59	0xbd96d750	-0.07365286
60	0xba178f0b	-0.0005781508
61	0xbe5e725c	-0.21723312
62	0xbe03bbf8	-0.12864673
63	0x3de2c577	0.1107282
64	0xbd1232ca	-0.035692967
65	0x3e0b894f	0.13626598
66	0xbda8a086	-0.082337424
67	0x3b3aef52	0.0028523994
68	0x3d3f4d8f	0.046704825
69	0xbd3f2fb2	-0.046676345
70	0xbaefc563	-0.0018293079
71	0x3e13a79f	0.14419411
72	0xbdbdabaf	-0.09261262
73	0x3d464176	0.048402272
74	0xbdccfc18	-0.100090206
75	0x3dc373ca	0.095435694
76	0xbda734dd	-0.0816438
77	0xbd7c70e6	-0.061631106
78	0x3d9b183d	0.075729825
79	0x3cf5c8dc	0.030003004
80	0x3e120ff0	0.14263892
81	0xbe12cade	-0.143352
82	0xbe05f354	-0.13081104
83	0x3de82268	0.113346875
84	0xbd804f76	-0.06265156
85	0x3d11aa0b	0.035562556
86	0x3e29bf5f	0.16576909
87	0x3d2859d4	0.04110129
88	0xbdafbafe	-0.08580588
89	0xbe00228e	-0.12513182
90	0xbe1e4771	-0.1545694
91	0xbdc6bdcb	-0.09704169
92	0xbcb9dfbd	-0.022689695
93	0xbe25f5a2	-0.16206983
94	0x3c417fd9	0.011810266
95	0x3d24909b	0.04017697
96	0xbc8946e0	-0.016757429
97	0xbbcf3418	-0.0063233487
98	0x3dd08ee1	0.10183502
99	0xbdc08685	-0.094006576
100	0x3ddd7061	0.1081245
101	0x3d4a9a86	0.04946377
102	0x3cc7fb22	0.024411742
103	0xbe16005c	-0.14648575
104	0x3db6259f	0.088938944
105	0xbd141e70	-0.03616184
106	0x3e5066ec	0.20351762
107	0xbdb1c23e	-0.08679627
108	0x3d881bd4	0.06645933
109	0x3da769a2	0.08174445
110	0xbdf8392c	-0.1212028
111	0x3e2f5ed5	0.1712602
112	0xbe031381	-0.12800409
113	0xbe1795b2	-0.14803198
114	0xbd286f82	-0.041121967
115	0x3e096345	0.13416775
116	0x3d2d2d86	0.042279743
117	0x3e150e22	0.14556172
118	0x3da25bb2	0.07927646
119	0x3e1e3ee0	0.15453672
120	0xbd147b7b	-0.036250573
121	0xbcb8f0c5	-0.022575745
122	0xbb2a9003	-0.002602578
123	0x3da1fe5e	0.07909845
124	0xbdeec6f5	-0.11659042
125	0xbd1182dd	-0.03552519
126	0x3d46753b	0.048451643
127	0x3b049b4b	0.0020234163

fc2.weight f4 [64, 128]
0	0xbe8f678d	-0.2800869
1	0x3d4a2899	0.049355123
2	0x3dee3b8e	0.11632453
3	0x3f028de4	0.5099776
4	0xbe491eb9	-0.19640626
5	0x3e9ed842	0.31024367
6	0xbdf43517	-0.119241886
7	0x3e00bca7	0.12571965
8	0xbd0a0316	-0.03369435
9	0x3d47c320	0.04877007
10	0xbdd03063	-0.10165479
11	0x3c9974cc	0.01873245
12	0x3bb7843d	0.005600481
13	0x3d15a8f0	0.036538064
14	0x3d9e439f	0.077277415
15	0xbe9a28c7	-0.30109236
16	0xbd8a7a24	-0.06761578
17	0xbee1c0c9	-0.44092396
18	0x3d40b6fb	0.047049504
19	0xbeb7adfb	-0.35874924
20	0xbdf44dc0	-0.11928892
21	0xbd97bcef	-0.07409083
22	0x3dd4c44a	0.10389002
23	0xbcf2c178	-0.029633269
24	0xbd8a533f	-0.06754159
25	0x3d0d7c5d	0.03454243
26	0xbd1fda54	-0.039026573
27	0x3e345f90	0.17614579
28	0xbf041395	-0.5159238
29	0xbe5214b4	-0.2051571
30	0x3cb1e1b4	0.021714069
31	0xbdf89a23	-0.12138774
32	0x3e4a2e1e	0.19744155
33	0xbe8e7a44	-0.27827656
34	0xbeef1649	-0.4669669
35	0x3e5e276e	0.21694729
36	0xbd3ccc9d	-0.046093572
37	0x3e36d883	0.1785603
38	0xbe194e67	-0.14971314
39	0x3d830a2d	0.06398425
40	0x3e87c497	0.26517174
41	0x3e0eaa81	0.1393223
42	0x3d5458ae	0.051842384
43	0xbe9d2b2b	-0.30696997
44	0x3ddc9700	0.107709885
45	0xbed9884e	-0.42486805
46	0xbdc2db84	-0.095145255
47	0x3d5af33d	0.053454626
48	0xbd28a498	-0.041172594
49	0xbe0a286d	-0.13491984
50	0xbe4a1025	-0.19732721
51	0x3c638a22	0.013887914
52	0xbe188313	-0.14893751
53	0xbf0e06c2	-0.5547906
54	0x3d4ac86a	0.049507536
55	0xbc22e39c	-0.009941962
56	0xbdc7da49	-0.097584315
57	0x3d65d6db	0.056113105
58	0x3d305e5a	0.04305873
59	0x3e975d2f	0.2956328
60	0xbe28e39a	-0.16493073
61	0x3e78e3d4	0.2430566
62	0x3eb55b89	0.35421398
63	0xbd39bf74	-0.0453486
64	0xbf1aaf65	-0.6042388
65	0xbf166909	-0.5875402
66	0xbe1b57d4	-0.15170223
67	0xbcafa1b2	-0.021439407
68	0x3e4d7c8c	0.20067042
69	0x3e1aa3b4	0.1510151
70	0xbd89e2e3	-0.06732728
71	0xbd8bd549	-0.0682779
72	0x3e8b04ce	0.27152103
73	0x3e44ce56	0.19219336
74	0x3e308a07	0.17240153
75	0x3e2916cf	0.16512607
76	0x3e04ffed	0.12988253
77	0xbdb4c7d7	-0.08827179
78	0x3d75d06e	0.060013227
79	0x3e85b73c	0.2611636
80	0xbc924772	-0.017856333
81	0x3d25547d	0.040363777
82	0x3d491c9d	0.049099553
83	0xbe06b267	-0.13153993
84	0xbf051068	-0.5197816
85	0xbd984304	-0.07434657
86	0xbdb218c7	-0.08696132
87	0xbf0f47e1	-0.55969054
88	0xbbf290e0	-0.0074025244
89	0x3df13e3b	0.11779448
90	0xbe66ff10	-0.22558236
91	0x3cce45d7	0.025179787
92	0x3c00170e	0.007817997
93	0x3df57259	0.11984701
94	0xbe7a5d6f	-0.24449705
95	0xbebd1999	-0.36933592
96	0xbe75348b	-0.23945825
97	0x3e170722	0.14748815
98	0xbca76140	-0.020432115
99	0x3cdb6b57	0.026784582
100	0x3d8d33ee	0.068946704
101	0xbd648fd3	-0.055801224
102	0x3977fbdc	0.0002364958
103	0x3cdf42fa	0.027253617
104	0xbe42681e	-0.1898503
105	0x3d883d46	0.06652312
106	0xbd8a8dba	-0.067653134
107	0xbc31e708	-0.010858305
108	0x3f01b9c7	0.506741
109	0xbec50758	-0.38482165
110	0x3dee15fc	0.11625287
111	0x3e21ac98	0.15788496
112	0x3eb8ff63	0.36132345
113	0x3d84b908	0.064806044
114	0xbd80730d	-0.06271944
115	0xbd4e4fd8	-0.050369114
116	0x3d7edebe	0.062224142
117	0x3d13c777	0.036078896
118	0x3db31fdc	0.08746311
119	0xbea4fd57	-0.32224533
120	0x3e0e82e7	0.13917123
121	0x3e23a493	0.15980749
122	0x3e870589	0.2637141
123	0xbb84484d	-0.0040369392
124	0x3e51219a	0.20422974
125	0x3bb88021	0.0056305085
126	0x3e06b399	0.13154449
127	0x3d9f679d	0.077834345
128	0xbd5902b4	-0.052981094
129	0xbe247a22	-0.16062215
130	0x3de5f79c	0.11228868
131	0x3d234859	0.039863918
132	0x3d4c4dba	0.049878813
133	0xbdd70806	-0.10499577
134	0xbdca9516	-0.09891717
135	0x3d851e6d	0.06499944
136	0x3e26988c	0.1626913
137	0x3d896382	0.06708433
138	0x3de75404	0.112953216
139	0x3c81ff1e	0.01586872
140	0x3e3b1f8c	0.18273753
141	0x3e1c8bb3	0.15287666
142	0xbcc88c0a	-0.024480838
143	0x3e471d87	0.19444858
144	0xbe975b08	-0.2956164
145	0x3e7da58c	0.24770182
146	0x3d7f100c	0.062271163
147	0xbd2d7402	-0.04234696
148	0xbdc4ac06	-0.09603123
149	0x3d0fd6b3	0.035116863
150	0xbe818882	-0.2529946
151	0xbe342741	-0.17593099
152	0x3c2080d6	0.009796342
153	0x3e16f1be	0.14740655
154	0x3d082a39	0.03324339
155	0xbd835cba	-0.064141706
156	0x3d160b0d	0.036631633
157	0xbdc040c5	-0.09387354
158	0x3b9b3e7a	0.0047376724
159	0x3e446df0	0.19182563
160	0xbc43895b	-0.011934604
161	0x3d6357e6	0.05550375
162	0x3d913711	0.07090581
163	0x3dbaf8ad	0.091294624
164	0xbda600bc	-0.08105609
165	0xbe00b047	-0.12567244
166	0x3dd00f69	0.10159189
167	0xbdadb076	-0.08480923
168	0xbdbbf4c8	-0.09177548
169	0xbe08f61d	-0.13375135
170	0xbd7079ff	-0.058710095
171	0x3c0bc8c7	0.008531756
172	0xbdeace07	-0.11465078
173	0x3d378174	0.04480119
174	0xbd917bd5	-0.07103697
175	0xbbc14866	-0.005898523
176	0xbe97da65	-0.2965881
177	0x3d07ec9a	0.033184625
178	0xbea32264	-0.31862175
179	0xbe54c925	-0.20779856
180	0x3c4cd3ca	0.012501666
181	0x3dbce7b6	0.09223883
182	0x3c19d1e5	0.009388422
183	0x3d59d69a	0.053183176
184	0x3dac1e5f	0.0840423
185	0xbd86dde9	-0.06585295
186	0xbe7f63cf	-0.24940418
187	0xbe038fe8	-0.12847865
188	0xbe9fafbe	-0.31188768
189	0xbde7e66a	-0.11323245
190	0xbe82b404	-0.25527966
191	0xbdf104d5	-0.117685
192	0xbe175e57	-0.14782082
193	0xbdb42c91	-0.08797563
194	0xbcfcd993	-0.030865466
195	0x3d9bcfd5	0.07608
196	0xbd2b1ddb	-0.04177652
197	0xbd80b4be	-0.06284474
198	0x3c1c6153	0.009544688
199	0x3e3f8441	0.18702795
200	0xbe098d13	-0.13432722
201	0x3dbdf11d	0.09274504
202	0x3def5d2a	0.116876915
203	0xbd167296	-0.03673037
204	0xbcb03648	-0.021510258
205	0xbd250b69	-0.040294085
206	0xbcaa7adf	-0.020810543
207	0xbde92297	-0.113835506
208	0x3ec69d98	0.3879211
209	0xbde07c4e	-0.10961209
210	0x3e1a8f41	0.1509371
211	0xbd6d9ad7	-0.058008995
212	0x3e2cd533	0.16878204
213	0xbcee12b2	-0.029061649
214	0xbcea13e5	-0.02857394
215	0x3ccc8544	0.02496589
216	0xbe3696d9	-0.17830981
217	0xbe188c0b	-0.14897172
218	0xbcf9b1b1	-0.030480238
219	0xbcdd463e	-0.027011033
220	0x3b029cef	0.0019929965
221	0xbcc5e163	-0.024155324
222	0xbea00875	-0.31256452
223	0xbe728116	-0.23682055
224	0xbeb63892	-0.35590035
225	0xbdf12597	-0.11774748
226	0xbda4828d	-0.08032713
227	0xbda5d024	-0.0809634
228	0xbdaeb756	-0.08531062
229	0x3e351dcb	0.17687146
230	0x3eaeccd9	0.3414066
231	0xbbc47e27	-0.005996484
232	0xbdf270c9	-0.11837918
233	0xbe358226	-0.17725429
234	0x3d919dc9	0.07110173
235	0xbd7840f4	-0.06060882
236	0xbe9b6947	-0.30353758
237	0x3d06d2c9	0.032915864
238	0xbe6302df	-0.22169064
239	0xbdfd049d	-0.123543955
240	0xbf1cb275	-0.61209804
241	0x3d69558b	0.056966346
242	0x3d98f99c	0.07469484
243	0xbb573d93	-0.0032843098
244	0xbd67203b	-0.05642722
245	0xbd1fbe44	-0.03899981
246	0x3df45535	0.119303145
247	0x3e2ac69b	0.16677324
248	0xbcddf525	-0.027094433
249	0x3e0bf3c7	0.13667212
250	0xbd8327eb	-0.06404098
251	0x3c4a1daf	0.012336179
252	0xbdb2e6ec	-0.08735451
253	0x3e0feb03	0.14054494
254	0xbdf7c734	-0.12098542
255	0x3e19db2b	0.15025012

fc2.bias f4 [64]
0	0xbe4b18c1	-0.19833662
1	0xbc5b7632	-0.013394879
2	0x3de692ce	0.112584695
3	0xbc208509	-0.009797343
4	0x3df66f3d	0.12032936
5	0xbd6cbdd0	-0.057798207
6	0x3e5c224e	0.21497461
7	0x3c90a500	0.017656803
8	0xbdd9b4be	-0.10630177
9	0x3d58286b	0.05277292
10	0xbdb10023	-0.08642604
11	0x3e7d1d4b	0.24718206
12	0x3d71ecd8	0.059063762
13	0x3e9a8f3b	0.301874
14	0xbe07048e	-0.13185331
15	0xbcdbcc9e	-0.026830968
16	0xbba4d8b3	-0.0050307154
17	0xbde50ae5	-0.111837186
18	0xbd9099cd	-0.07060585
19	0x3e84a859	0.2590969
20	0x3f1425c6	0.5787014
21	0x3e9fbd77	0.31199238
22	0x3e38d204	0.18048865
23	0x3dfe7550	0.12424719
24	0xbd3965ad	-0.04526298
25	0x3d6ab4b2	0.05730123
26	0xbc17f046	-0.009273594
27	0xbe34cb1f	-0.1765561
28	0x3e62a602	0.2213364
29	0xbe40050e	-0.18751928
30	0x3e03753c	0.1283769
31	0xbdc1a02e	-0.0945438
32	0x3e22e83c	0.15908903
33	0x3d3ae4b2	0.045628257
34	0xbe26e5d3	-0.16298608
35	0xbc7f1262	-0.015568348
36	0x3ef94f41	0.48693278
37	0xbd132921	-0.035927895
38	0x3dfa8152	0.12231697
39	0x3eabc927	0.33551905
40	0x3d7a8413	0.061161112
41	0xbd8ef3d2	-0.06980099
42	0xbde970d7	-0.113984756
43	0xbd6fdbff	-0.058559414
44	0xbc8588c2	-0.016300563
45	0xbde5ffdb	-0.11230441
46	0xbde1e513	-0.110300206
47	0x3dafc7e7	0.0858305
48	0x3cf5a1e6	0.029984426
49	0xbe009651	-0.12557341
50	0xbde9cd63	-0.114161275
51	0xbd353c45	-0.04424693
52	0x3da7f2f3	0.08200636
53	0xbe662373	-0.2247446
54	0x3ec5a2a3	0.38600644
55	0xbe8addcc	-0.27122343
56	0x3e3b7bd9	0.18308963
57	0x3ef63243	0.48085222
58	0x3d8236a9	0.06358082
59	0x3e35458a	0.17702308
60	0xbc30c823	-0.010789904
61	0x3cac4c8d	0.021032596
62	0xbd66a286	-0.05630734
63	0x3dd2000e	0.10253917

fc3.weight f4 [4, 64]
0	0xbe070514	-0.13185531
1	0x3dbd7e19	0.09252567
2	0x3dd60029	0.10449249
3	0x3f141565	0.57845145
4	0xbbe5e1ea	-0.0070154564
5	0x3ef00e99	0.46886137
6	0x3e5bfe8f	0.21483825
7	0xbfc13d0d	-1.5096756
8	0x3cce1184	0.025154836
9	0xbf1c24b2	-0.6099349
10	0xbdac4275	-0.08411113
11	0x3c9ec519	0.019381093
12	0x3e8c6424	0.2742015
13	0x3dfac3af	0.12244355
14	0xbc84d623	-0.01621539
15	0x3d620e2f	0.055189308
16	0xbd8f942d	-0.07010684
17	0xbf10414d	-0.5634964
18	0xbdc2ba37	-0.09508174
19	0x3d8b3931	0.06798018
20	0x3e84087b	0.2578772
21	0x3e686b11	0.22697093
22	0x3edca31f	0.43093202
23	0x3db3d435	0.0878071
24	0xbf6c464b	-0.9229476
25	0x3e670810	0.2256167
26	0x3da64778	0.081191
27	0xbe2db484	-0.16963392
28	0x3e2b6464	0.16737515
29	0xbe89abc0	-0.26888847
30	0x3e7ae946	0.24503049
31	0xbe4e3dc1	-0.20140745
32	0x3d07704e	0.033066086
33	0x3d14e811	0.03635413
34	0xbdda174c	-0.10648975
35	0x3f0327f4	0.5123284
36	0x3e671e08	0.2257005
37	0x3e0c84bc	0.13722509
38	0x3edb649c	0.42850196
39	0x3e1bdf8d	0.15221997
40	0xbc0e27d8	-0.008676492
41	0xbf3897f9	-0.7210689
42	0x3e5a20f8	0.21301639
43	0x3e3e9114	0.1861003
44	0xbcbb23cb	-0.022844216
45	0xbe2cf60e	-0.16890737
46	0xbf76bcd3	-0.9638187
47	0x3c528ec0	0.012851417
48	0x3f0088eb	0.5020892
49	0x3cf7a019	0.030227708
50	0xbe120eee	-0.14263508
51	0x3f027d38	0.5097232
52	0x3d3697e2	0.04457844
53	0xbe9bc1a3	-0.3042117
54	0x3e3c0b25	0.18363626
55	0xbdb1e32e	-0.08685909
56	0x3d49f60d	0.049306918
57	0x3e54382f	0.20724557
58	0x3da014b1	0.078164466
59	0xbd8b6cb8	-0.06807846
60	0xbfbed08d	-1.4907395
61	0x3f0deb3b	0.5543706
62	0xbe1f4509	-0.15553679
63	0x3e500f74	0.20318395
64	0xbe4ba4a5	-0.19887026
65	0x3dde29d2	0.1084782
66	0x3e265330	0.16242671
67	0x3eefa610	0.46806383
68	0x3d42f1c2	0.04759384
69	0x3f11037f	0.5664596
70	0x3e6cfc1a	0.23143044
71	0xbdb5032f	-0.08838498
72	0xbdcbb96a	-0.09947474
73	0x3f1508e6	0.582167
74	0x3d3989a9	0.0452973
75	0x3e1a7f20	0.15087557
76	0x3f0683d9	0.52544934
77	0x3e807958	0.25092578
78	0x3dbb2ee4	0.09139803
79	0x3d1960d6	0.037445866
80	0x3d12e6ad	0.03586452
81	0xbdf1ac87	-0.11800485
82	0xbdac9426	-0.084266946
83	0x3df1a331	0.117987044
84	0x3e742879	0.23843564
85	0x3e5fbd81	0.21849634
86	0x3eeabf5d	0.45849124
87	0x3ba0f673	0.0049121915
88	0x3ecc49f0	0.3990016
89	0x3ef4d691	0.4781995
90	0x3e7e06ae	0.24807236
91	0xbe539855	-0.20663579
92	0x3df01aca	0.117238596
93	0xbe1c13bb	-0.15241902
94	0xbca93b39	-0.020658122
95	0xbe67a738	-0.22622383
96	0x3e1748f1	0.14773919
97	0xbccdff5c	-0.025146179
98	0xbdddada3	-0.10824134
99	0x3ed6dc49	0.4196494
100	0x3e501b5f	0.20322941
101	0x3df7d262	0.12100674
102	0x3ecd8114	0.4013754
103	0x3e402e23	0.187676
104	0xbd659b07	-0.05605605
105	0x3f502c8d	0.8131798
106	0x3e33b3cc	0.17549056
107	0x3e0d0693	0.13772039
108	0xbf8af252	-1.08552
109	0xbd997a57	-0.074940376
110	0xbec523f3	-0.3850399
111	0x3e1fe9b9	0.15616502
112	0xbfa14ed7	-1.2602185
113	0xbf4ba3e4	-0.7954695
114	0xbf26fd8c	-0.6523063
115	0x3e11b4a4	0.14229065
116	0xbc7ec97b	-0.015550966
117	0xbe89f881	-0.26947406
118	0x3e315d1f	0.17320679
119	0xbe245842	-0.16049293
120	0x3d56d937	0.052453246
121	0x3e296837	0.16543661
122	0xbf673ff0	-0.90331936
123	0x3d986d74	0.074427515
124	0xbdf43768	-0.119246304
125	0x3f0e10b3	0.5549423
126	0xbec57f6f	-0.38573787
127	0x3e613caf	0.21995805
128	0xbe57d313	-0.21076612
129	0xbe63ad1f	-0.22234009
130	0x3e609392	0.21931294
131	0x3ef0d74d	0.4703926
132	0x3e21700b	0.15765397
133	0xbe417f46	-0.18896207
134	0x3e43c267	0.19117127
135	0x3caaa212	0.020829234
136	0xbd361059	-0.044449184
137	0x3f857bc8	1.04284
138	0xbea87e6c	-0.32908952
139	0x3e2b235d	0.16712709
140	0xbc8ac05e	-0.016937431
141	0x3d833c00	0.064079285
142	0x3b0b1d98	0.0021227356
143	0x3f05a7d1	0.5220919
144	0xbebb332f	-0.36562487
145	0xbea28ecf	-0.3174958
146	0xbe2e4c32	-0.17021254
147	0x3e14c827	0.14529477
148	0x3e3e2e49	0.18572344
149	0x3e0b45c3	0.1360083
150	0x3ee70e92	0.45128304
151	0x3e708b6d	0.23490687
152	0xbf8b943f	-1.0904616
153	0xbd8c0d1c	-0.06838438
154	0x3eb27d48	0.34861207
155	0xbe3815e6	-0.17977104
156	0x3e63365b	0.22188704
157	0xbe027240	-0.12738895
158	0x3ebb55ed	0.36588994
159	0xbe2ec26b	-0.17066352
160	0x3e684864	0.22683865
161	0xbe604a39	-0.21903314
162	0xbcb80898	-0.022465035
163	0x3eeca961	0.46222976
164	0x3e477cf3	0.19481258
165	0x3ece3afa	0.4027937
166	0x3e57d7c2	0.21078399
167	0x3e2ebbc4	0.17063814
168	0x3dba4780	0.09095669
169	0x3f2eff60	0.6835842
170	0x3e83f368	0.25771642
171	0x3dca6154	0.09881845
172	0xbefb1414	-0.49038756
173	0x3df548d1	0.11976779
174	0xbee0d321	-0.4391108
175	0x3db2e56e	0.087351665
176	0x3f71a8d5	0.9439824
177	0xbed133d8	-0.40859866
178	0x3d2e8d2b	0.042615097
179	0x3efcd8b7	0.4938409
180	0x3e6a6d33	0.22893219
181	0xbe17c94c	-0.14822882
182	0x3d0d869e	0.03455221
183	0xbe5184f2	-0.20460871
184	0x3e34853f	0.17628954
185	0x3e84b6fd	0.2592086
186	0xbf461f7d	-0.773918
187	0x3e1feb7b	0.15617172
188	0xbd0578c6	-0.03258588
189	0x3f2feee8	0.68723917
190	0xbe2e9618	-0.17049444
191	0x3eb65068	0.3560822
192	0xbe67adff	-0.22624968
193	0xbe1004b0	-0.14064288
194	0x3dc8170c	0.09770021
195	0x3f078f48	0.52953005
196	0x3e7eebcf	0.24894641
197	0x3f402a6d	0.75064737
198	0x3e8c191d	0.2736291
199	0x3e12e61e	0.14345595
200	0x3b9e73c0	0.004835576
201	0x3f42ce8b	0.7609641
202	0xbde5e4b4	-0.11225262
203	0x3e753240	0.2394495
204	0x3f377985	0.716698
205	0x3d0f2663	0.034948718
206	0xbdb926c7	-0.09040599
207	0x3eb7fdce	0.35935825
208	0x3e4ad326	0.19807109
209	0xbef65742	-0.48113447
210	0x3e65cbdb	0.22441046
211	0x3e3566d3	0.17715006
212	0x3e74713e	0.23871323
213	0x3e6ffb5e	0.23435733
214	0x3e98c8bb	0.29840645
215	0x3e37389a	0.17892686
216	0x3e022e91	0.12713076
217	0x3f44773f	0.76744455
218	0xbe39e8af	-0.18155168
219	0xbe7a338f	-0.2443373
220	0x3e1d2b77	0.15348612
221	0x3cba3255	0.022729078
222	0x3ea06e81	0.31334308
223	0xbd7ad5b9	-0.061238978
224	0xbd44b1f7	-0.048021283
225	0x3da265d9	0.07929582
226	0xbedc3d47	-0.430155
227	0x3f182b8b	0.5944144
228	0x3e34c7a2	0.17654279
229	0x3eae8234	0.34083712
230	0x3e63e14c	0.22253913
231	0x3e1b26e5	0.15151556
232	0xbe92221e	-0.28541654
233	0x3ed0dfd2	0.4079576
234	0xbe94ea6b	-0.29085097
235	0x3eceb513	0.40372524
236	0xbf37b694	-0.7176297
237	0xbe56903e	-0.20953462
238	0xbf53a44f	-0.8267259
239	0x3e92a850	0.28644037
240	0xbf0b7d89	-0.54488426
241	0xbed2208d	-0.4104046
242	0x3ebe9355	0.3722178
243	0x3f28f285	0.65995055
244	0xbdda3575	-0.10654727
245	0xbe7c31b0	-0.2462833
246	0x3d7557ef	0.059898313
247	0xbec3be0f	-0.3823094
248	0x3e803985	0.25043884
249	0x3e035f67	0.12829362
250	0x3f1d7b41	0.61516196
251	0x3e519dce	0.20470354
252	0xbea51457	-0.3224208
253	0x3e494cbe	0.19658181
254	0xbeccb663	-0.399829
255	0x3ead056c	0.337932

fc3.bias f4 [4]
0	0x3ec87393	0.39150676
1	0x3e95d4e9	0.29264
2	0x3eb72abd	0.35774794
3	0x3ebdbdcf	0.37058875
